D:\ProgramData\anaconda3\envs\homework_2_1\python.exe D:/homework/Course_Design_of_artificial_intelligence/third/ResNet_Seblock/fangzhang_ResNet_kaggle_dalao/PhanDai_ResNet_seblock_kaggle_dalao/fangzhao_dalao_V2.py

--- Model Summary ---
----------------------------------------------------------------
        Layer (type)               Output Shape         Param #
================================================================
            Conv2d-1         [-1, 64, 112, 112]           9,408
       BatchNorm2d-2         [-1, 64, 112, 112]             128
              ReLU-3         [-1, 64, 112, 112]               0
         MaxPool2d-4           [-1, 64, 56, 56]               0
            Conv2d-5           [-1, 64, 56, 56]          36,864
       BatchNorm2d-6           [-1, 64, 56, 56]             128
              ReLU-7           [-1, 64, 56, 56]               0
            Conv2d-8           [-1, 64, 56, 56]          36,864
       BatchNorm2d-9           [-1, 64, 56, 56]             128
AdaptiveAvgPool2d-10             [-1, 64, 1, 1]               0
           Linear-11                    [-1, 4]             256
             ReLU-12                    [-1, 4]               0
           Linear-13                   [-1, 64]             256
          Sigmoid-14                   [-1, 64]               0
          SEBlock-15           [-1, 64, 56, 56]               0
             ReLU-16           [-1, 64, 56, 56]               0
     SEBasicBlock-17           [-1, 64, 56, 56]               0
           Conv2d-18           [-1, 64, 56, 56]          36,864
      BatchNorm2d-19           [-1, 64, 56, 56]             128
             ReLU-20           [-1, 64, 56, 56]               0
           Conv2d-21           [-1, 64, 56, 56]          36,864
      BatchNorm2d-22           [-1, 64, 56, 56]             128
AdaptiveAvgPool2d-23             [-1, 64, 1, 1]               0
           Linear-24                    [-1, 4]             256
             ReLU-25                    [-1, 4]               0
           Linear-26                   [-1, 64]             256
          Sigmoid-27                   [-1, 64]               0
          SEBlock-28           [-1, 64, 56, 56]               0
             ReLU-29           [-1, 64, 56, 56]               0
     SEBasicBlock-30           [-1, 64, 56, 56]               0
           Conv2d-31          [-1, 128, 28, 28]          73,728
      BatchNorm2d-32          [-1, 128, 28, 28]             256
             ReLU-33          [-1, 128, 28, 28]               0
           Conv2d-34          [-1, 128, 28, 28]         147,456
      BatchNorm2d-35          [-1, 128, 28, 28]             256
AdaptiveAvgPool2d-36            [-1, 128, 1, 1]               0
           Linear-37                    [-1, 8]           1,024
             ReLU-38                    [-1, 8]               0
           Linear-39                  [-1, 128]           1,024
          Sigmoid-40                  [-1, 128]               0
          SEBlock-41          [-1, 128, 28, 28]               0
           Conv2d-42          [-1, 128, 28, 28]           8,192
      BatchNorm2d-43          [-1, 128, 28, 28]             256
             ReLU-44          [-1, 128, 28, 28]               0
     SEBasicBlock-45          [-1, 128, 28, 28]               0
           Conv2d-46          [-1, 128, 28, 28]         147,456
      BatchNorm2d-47          [-1, 128, 28, 28]             256
             ReLU-48          [-1, 128, 28, 28]               0
           Conv2d-49          [-1, 128, 28, 28]         147,456
      BatchNorm2d-50          [-1, 128, 28, 28]             256
AdaptiveAvgPool2d-51            [-1, 128, 1, 1]               0
           Linear-52                    [-1, 8]           1,024
             ReLU-53                    [-1, 8]               0
           Linear-54                  [-1, 128]           1,024
          Sigmoid-55                  [-1, 128]               0
          SEBlock-56          [-1, 128, 28, 28]               0
             ReLU-57          [-1, 128, 28, 28]               0
     SEBasicBlock-58          [-1, 128, 28, 28]               0
           Conv2d-59          [-1, 256, 14, 14]         294,912
      BatchNorm2d-60          [-1, 256, 14, 14]             512
             ReLU-61          [-1, 256, 14, 14]               0
           Conv2d-62          [-1, 256, 14, 14]         589,824
      BatchNorm2d-63          [-1, 256, 14, 14]             512
AdaptiveAvgPool2d-64            [-1, 256, 1, 1]               0
           Linear-65                   [-1, 16]           4,096
             ReLU-66                   [-1, 16]               0
           Linear-67                  [-1, 256]           4,096
          Sigmoid-68                  [-1, 256]               0
          SEBlock-69          [-1, 256, 14, 14]               0
           Conv2d-70          [-1, 256, 14, 14]          32,768
      BatchNorm2d-71          [-1, 256, 14, 14]             512
             ReLU-72          [-1, 256, 14, 14]               0
     SEBasicBlock-73          [-1, 256, 14, 14]               0
           Conv2d-74          [-1, 256, 14, 14]         589,824
      BatchNorm2d-75          [-1, 256, 14, 14]             512
             ReLU-76          [-1, 256, 14, 14]               0
           Conv2d-77          [-1, 256, 14, 14]         589,824
      BatchNorm2d-78          [-1, 256, 14, 14]             512
AdaptiveAvgPool2d-79            [-1, 256, 1, 1]               0
           Linear-80                   [-1, 16]           4,096
             ReLU-81                   [-1, 16]               0
           Linear-82                  [-1, 256]           4,096
          Sigmoid-83                  [-1, 256]               0
          SEBlock-84          [-1, 256, 14, 14]               0
             ReLU-85          [-1, 256, 14, 14]               0
     SEBasicBlock-86          [-1, 256, 14, 14]               0
           Conv2d-87            [-1, 512, 7, 7]       1,179,648
      BatchNorm2d-88            [-1, 512, 7, 7]           1,024
             ReLU-89            [-1, 512, 7, 7]               0
           Conv2d-90            [-1, 512, 7, 7]       2,359,296
      BatchNorm2d-91            [-1, 512, 7, 7]           1,024
AdaptiveAvgPool2d-92            [-1, 512, 1, 1]               0
           Linear-93                   [-1, 32]          16,384
             ReLU-94                   [-1, 32]               0
           Linear-95                  [-1, 512]          16,384
          Sigmoid-96                  [-1, 512]               0
          SEBlock-97            [-1, 512, 7, 7]               0
           Conv2d-98            [-1, 512, 7, 7]         131,072
      BatchNorm2d-99            [-1, 512, 7, 7]           1,024
            ReLU-100            [-1, 512, 7, 7]               0
    SEBasicBlock-101            [-1, 512, 7, 7]               0
          Conv2d-102            [-1, 512, 7, 7]       2,359,296
     BatchNorm2d-103            [-1, 512, 7, 7]           1,024
            ReLU-104            [-1, 512, 7, 7]               0
          Conv2d-105            [-1, 512, 7, 7]       2,359,296
     BatchNorm2d-106            [-1, 512, 7, 7]           1,024
AdaptiveAvgPool2d-107            [-1, 512, 1, 1]               0
          Linear-108                   [-1, 32]          16,384
            ReLU-109                   [-1, 32]               0
          Linear-110                  [-1, 512]          16,384
         Sigmoid-111                  [-1, 512]               0
         SEBlock-112            [-1, 512, 7, 7]               0
            ReLU-113            [-1, 512, 7, 7]               0
    SEBasicBlock-114            [-1, 512, 7, 7]               0
AdaptiveAvgPool2d-115            [-1, 512, 1, 1]               0
          Linear-116                  [-1, 120]          61,560
================================================================
Total params: 11,325,112
Trainable params: 11,325,112
Non-trainable params: 0
----------------------------------------------------------------
Input size (MB): 0.57
Forward/backward pass size (MB): 68.57
Params size (MB): 43.20
Estimated Total Size (MB): 112.35
----------------------------------------------------------------
参数量: 11.33 M
…
